…
allowed to be loaded via this mode unless they are explicitly allowlisted by the user via `torch.serialization.add_safe_globals`. We recommend you start setting `weights_only=True` for any use case where you don't have full control of the loaded file. Please open an issue on GitHub for any issues related to this experimental feature.
  checkpoint = torch.load(checkpoint, map_location="cpu")
[INFO    ][2026-03-14 16:05:50][root                ][init_module              ] loaded pretrained model with msg: <All keys matched successfully>
VisionTransformer(
  (patch_embed): PatchEmbed3D(
    (proj): Conv3d(3, 1408, kernel_size=(2, 16, 16), stride=(2, 16, 16))
  )
  (blocks): ModuleList(
    (0-39): 40 x Block(
      (norm1): LayerNorm((1408,), eps=1e-06, elementwise_affine=True)
      (attn): RoPEAttention(
        (qkv): Linear(in_features=1408, out_features=4224, bias=True)
        (attn_drop): Dropout(p=0.0, inplace=False)
        (proj): Linear(in_features=1408, out_features=1408, bias=True)
        (proj_drop): Dropout(p=0.0, inplace=False)
      )
      (drop_path): Identity()
      (norm2): LayerNorm((1408,), eps=1e-06, elementwise_affine=True)
      (mlp): MLP(
        (fc1): Linear(in_features=1408, out_features=6144, bias=True)
        (act): GELU(approximate='none')
        (fc2): Linear(in_features=6144, out_features=1408, bias=True)
        (drop): Dropout(p=0.0, inplace=False)
      )
    )
  )
  (norm): LayerNorm((1408,), eps=1e-06, elementwise_affine=True)
)
ClipAggregation(
  (model): VisionTransformer(
    (patch_embed): PatchEmbed3D(
      (proj): Conv3d(3, 1408, kernel_size=(2, 16, 16), stride=(2, 16, 16))
    )
    (blocks): ModuleList(
      (0-39): 40 x Block(
        (norm1): LayerNorm((1408,), eps=1e-06, elementwise_affine=True)
        (attn): RoPEAttention(
          (qkv): Linear(in_features=1408, out_features=4224, bias=True)
          (attn_drop): Dropout(p=0.0, inplace=False)
          (proj): Linear(in_features=1408, out_features=1408, bias=True)
          (proj_drop): Dropout(p=0.0, inplace=False)
        )
        (drop_path): Identity()
        (norm2): LayerNorm((1408,), eps=1e-06, elementwise_affine=True)
        (mlp): MLP(
          (fc1): Linear(in_features=1408, out_features=6144, bias=True)
          (act): GELU(approximate='none')
          (fc2): Linear(in_features=6144, out_features=1408, bias=True)
          (drop): Dropout(p=0.0, inplace=False)
        )
      )
    )
    (norm): LayerNorm((1408,), eps=1e-06, elementwise_affine=True)
  )
)
AttentiveClassifier(
  (pooler): AttentivePooler(
    (cross_attention_block): CrossAttentionBlock(
      (norm1): LayerNorm((1408,), eps=1e-05, elementwise_affine=True)
      (xattn): CrossAttention(
        (q): Linear(in_features=1408, out_features=1408, bias=True)
        (kv): Linear(in_features=1408, out_features=2816, bias=True)
      )
      (norm2): LayerNorm((1408,), eps=1e-05, elementwise_affine=True)
      (mlp): MLP(
        (fc1): Linear(in_features=1408, out_features=5632, bias=True)
        (act): GELU(approximate='none')
        (fc2): Linear(in_features=5632, out_features=1408, bias=True)
        (drop): Dropout(p=0.0, inplace=False)
      )
    )
    (blocks): ModuleList(
      (0-2): 3 x Block(
        (norm1): LayerNorm((1408,), eps=1e-05, elementwise_affine=True)
        (attn): Attention(
          (qkv): Linear(in_features=1408, out_features=4224, bias=True)
          (attn_drop): Dropout(p=0.0, inplace=False)
          (proj): Linear(in_features=1408, out_features=1408, bias=True)
          (proj_drop): Dropout(p=0.0, inplace=False)
        )
        (drop_path): Identity()
        (norm2): LayerNorm((1408,), eps=1e-05, elementwise_affine=True)
        (mlp): MLP(
          (fc1): Linear(in_features=1408, out_features=5632, bias=True)
          (act): GELU(approximate='none')
          (fc2): Linear(in_features=5632, out_features=1408, bias=True)
          (drop): Dropout(p=0.0, inplace=False)
        )
      )
    )
  )
  (linear): Linear(in_features=1408, out_features=174, bias=True)
)
[INFO    ][2026-03-14 16:05:56][root                ][make_videodataset        ] VideoDataset dataset created
[INFO    ][2026-03-14 16:05:56][root                ][make_videodataset        ] VideoDataset unsupervised data loader created
[INFO    ][2026-03-14 16:05:56][root                ][make_videodataset        ] VideoDataset dataset created
[INFO    ][2026-03-14 16:05:56][root                ][make_videodataset        ] VideoDataset unsupervised data loader created
…
