…
[INFO    ][2026-03-13 12:35:47][root                ][<module>                 ] Running... (rank: 0/1)
[INFO    ][2026-03-13 12:35:47][ssv2_no_cycle_baseline.app.vjepa.train][main                     ] which_dtype='bfloat16'
[INFO    ][2026-03-13 12:35:47][root                ][init_distributed         ] SLURM vars not set (distributed training not available)
[INFO    ][2026-03-13 12:35:47][ssv2_no_cycle_baseline.app.vjepa.train][main                     ] Initialized (rank/world-size) 0/1
[INFO    ][2026-03-13 12:36:05][root                ][init_video_model         ] MultiSeqWrapper(
  (backbone): VisionTransformer(
    (patch_embed): PatchEmbed3D(
      (proj): Conv3d(3, 1408, kernel_size=(2, 16, 16), stride=(2, 16, 16))
    )
    (blocks): ModuleList(
      (0-39): 40 x Block(
        (norm1): LayerNorm((1408,), eps=1e-06, elementwise_affine=True)
        (attn): RoPEAttention(
          (qkv): Linear(in_features=1408, out_features=4224, bias=True)
          (attn_drop): Dropout(p=0.0, inplace=False)
          (proj): Linear(in_features=1408, out_features=1408, bias=True)
          (proj_drop): Dropout(p=0.0, inplace=False)
        )
        (drop_path): Identity()
        (norm2): LayerNorm((1408,), eps=1e-06, elementwise_affine=True)
        (mlp): MLP(
          (fc1): Linear(in_features=1408, out_features=6144, bias=True)
          (act): GELU(approximate='none')
          (fc2): Linear(in_features=6144, out_features=1408, bias=True)
          (drop): Dropout(p=0.0, inplace=False)
        )
      )
    )
    (norm): LayerNorm((1408,), eps=1e-06, elementwise_affine=True)
  )
)
[INFO    ][2026-03-13 12:36:05][root                ][init_video_model         ] PredictorMultiSeqWrapper(
  (backbone): VisionTransformerPredictor(
    (predictor_embed): Linear(in_features=1408, out_features=384, bias=True)
    (mask_tokens): ParameterList(  (0): Parameter containing: [torch.float32 of size 1x1x384 (cuda:0)])
    (predictor_blocks): ModuleList(
      (0-11): 12 x Block(
        (norm1): LayerNorm((384,), eps=1e-06, elementwise_affine=True)
        (attn): RoPEAttention(
          (qkv): Linear(in_features=384, out_features=1152, bias=True)
          (attn_drop): Dropout(p=0.0, inplace=False)
          (proj): Linear(in_features=384, out_features=384, bias=True)
          (proj_drop): Dropout(p=0.0, inplace=False)
        )
        (drop_path): Identity()
        (norm2): LayerNorm((384,), eps=1e-06, elementwise_affine=True)
        (mlp): MLP(
          (fc1): Linear(in_features=384, out_features=1536, bias=True)
          (act): GELU(approximate='none')
          (fc2): Linear(in_features=1536, out_features=384, bias=True)
          (drop): Dropout(p=0.0, inplace=False)
        )
      )
    )
    (predictor_norm): LayerNorm((384,), eps=1e-06, elementwise_affine=True)
    (predictor_proj): Linear(in_features=384, out_features=1408, bias=True)
  )
)
[INFO    ][2026-03-13 12:36:05][root                ][init_video_model         ] Encoder number of parameters: 1012173952
[INFO    ][2026-03-13 12:36:05][root                ][init_video_model         ] Predictor number of parameters: 22377856
[INFO    ][2026-03-13 12:36:05][root                ][make_videodataset        ] VideoDataset dataset created
…
